assets/spam_classifier.onnx (onnx, 555656 bytes, 3 tensors)

fc1.weight f4 [16, 8672]
-0.08681989 -0.08501552 0.07653329 -0.06742633 -0.0872976 -0.090180434 -0.07550633 0.0019485615
0.082618035 -0.0747306 -0.0908545 -0.08210695 -0.078678705 -0.0661093 -0.080217734 -0.061124533
-0.07750021 -0.039395053 -0.09830467 -0.04656347 -0.047223743 -0.06960947 -0.036959365 0.00065208785
-0.09013991 -0.08644568 -0.08125282 -0.08008288 -0.08813066 -0.07801566 -0.056536317 -0.07559323
-0.02059445 0.0027069617 0.0015152507 -0.057023887 -0.075325735 -0.051312488 -0.0012197793 -0.03838343
-0.041526742 -0.0034157014 -0.042974982 0.0019340608 -0.04401237 0.0030373698 -0.04076783 -0.059888743
-0.034277983 -0.08163126 0.005785942 -0.032119405 -0.007920096 -0.09567834 0.010616394 -0.07335886
-0.052100472 -0.090126865 -0.024006516 -0.037852015 -0.10162333 -0.08978315 -0.056008264 0.007315628
-0.06384946 -0.035165343 -0.105895385 -0.059976082 -0.008544508 -0.06044555 -0.061515875 -0.060742285
-0.013253649 -0.08144646 -0.039453052 -0.08315331 -0.029255586 -0.0036954526 -0.06608083 -0.090128966
-0.027171649 -0.09608014 -0.07520379 -0.006579295 -0.056083072 -0.006356339 -0.037249878 -0.0060228193
-0.053407665 -0.006312312 -0.060457014 -0.09307596 -0.025249012 0.008705355 -0.09159264 -0.079966664
-0.08515233 -0.05969595 -0.036559265 -0.04296018 -0.010549771 -0.0863 -0.09372274 -0.004174679
-0.004287983 -0.029554816 -0.043726414 -0.09679353 -0.08530962 -0.099580094 0.00752197 -0.06572131
-0.062045634 -0.071998335 -0.07963543 -0.05881568 -0.0919764 -0.0340328 -0.0048346957 -0.077264085
-0.08710086 -0.09511104 -0.08181596 0.006042082 -0.0048450287 -0.08396798 0.00226181 0.00834031
0.0015069479 0.006297823 -0.040279854 -0.06215453 -0.0098555675 0.0034456104 -0.0070376676 0.005126741
-0.007168507 0.0077302456 0.0056347493 0.0072319116 -0.036982514 -0.0048988285 0.0005743932 -0.009344516
-0.0867294 -0.03620754 -0.034642823 -0.009577465 -0.038358275 -0.010464512 -0.034855176 -0.082692765
-0.07265504 -0.09126077 -0.06352894 -0.05004694 -0.07952376 -0.09767834 -0.09167881 -0.08091971
-0.09147531 -0.042183038 -0.083328106 -0.09424973 -0.07916865 -0.004165618 -0.019208191 0.002623085
0.00034682173 -0.090386026 -0.08219582 -0.0054356274 0.0025859969 -0.08356161 -0.0043855608 -0.016691817
0.0051554516 -0.07428585 -0.069672346 -0.083608106 -0.036889285 0.00025936216 0.010721704 -0.051017426
-0.07603241 0.010434005 -0.03550433 -0.045764286 -0.07163535 -0.10353188 -0.09168299 0.0061766524
-0.021185037 -0.022756409 -0.0027808547 -0.08075016 -0.04929205 -0.04088487 -0.072618954 -0.10446992
-0.09952346 -0.09345487 -0.0095333895 -0.03618763 -0.008357938 -0.006712988 -0.093450904 -0.080295265
-0.0044646594 -0.09490149 -0.10236043 -0.08077997 -0.051119693 -0.077241264 0.008945392 -0.09008715
-0.047189087 -0.031101612 -0.00995808 -0.08284724 -0.0042963866 0.009843139 -0.0063161496 0.0004228158
-0.007967141 -0.07219116 -0.057912644 -0.09607577 -0.06954939 -0.06154045 -0.008623489 0.004088724
0.006661132 0.0035675457 -0.0072099497 -0.0077561354 -0.004317729 0.0050295778 -0.07051585 -0.056810845
0.002432188 -0.043724686 -0.0084378915 -0.01894621 -0.07929875 0.008524284 -0.09342865 0.005767219
-0.05131859 -0.036282506 -0.07493053 -0.087408945 0.0027272087 -0.042866282 -0.088244155 -0.09172461
00000000: a0ce b1bd 9e1c aebd 7cbd 9c3d d116 8abd
00000010: 16c9 b2bd 85b0 b8bd 10a3 9abd e066 ff3a
00000020: a533 a93d 5b0c 99bd ed11 babd b027 a8bd
00000030: 4d22 a1bd 5064 87bd 3249 a4bd b85d 7abd
00000040: 6eb8 9ebd b55c 21bd f553 c9bd 56b9 3ebd
00000050: af6d 41bd 698f 8ebd b462 17bd e0f0 2a3a
00000060: 469b b8bd 6f0a b1bd e167 a6bd 7e02 a4bd
00000070: d97d b4bd adc6 9fbd a092 67bd a0d0 9abd
00000080: b1b5 a8bc 4867 313b 609b c63a e191 69bd
00000090: 6144 9abd 0b2d 52bd 00e1 9fba f237 1dbd
000000a0: f217 2abd f6d9 5fbb 8906 30bd 5080 fd3a
000000b0: 5146 34bd 9c0e 473b 2bfc 26bd e64d 75bd
000000c0: 1267 0cbd 4a2e a7bd 0098 bd3b a38f 03bd
000000d0: 4ac3 01bc 01f3 c3bd 62f0 2d3c 2c3d 96bd
000000e0: 4e67 55bd 6f94 b8bd 50a9 c4bc b70a 1bbd
000000f0: e41f d0bd 3ae0 b7bd ec68 65bd f0b7 ef3b
00000100: 81c3 82bd 8909 10bd aedf d8bd 7ba9 75bd
00000110: 44fe 0bbc c195 77bd 12f8 7bbd e7cc 78bd
00000120: d525 59bc 67cd a6bd 8699 21bd 484c aabd
00000130: 69a9 efbc 682f 72bb 6355 87bd 8995 b8bd
00000140: 1497 debc aac5 c4bd 7204 9abd 2097 d7bb
00000150: 5db7 65bd d648 d0bb 5493 18bd 125b c5bb
00000160: ffc1 5abd 83d7 cebb c6a1 77bd 9c9e bebd
00000170: 04d7 cebc e8a0 0e3c ec94 bbbd 90c5 a3bd
00000180: 5864 aebd be83 74bd 2bbf 15bd 04f7 2fbd
00000190: f2d8 2cbc 0ebe b0bd b5f1 bfbd bfcb 88bb
000001a0: 3582 8cbb f11c f2bc 781a 33bd b03b c6bd
000001b0: cfb6 aebd a6f0 cbbd dc7a f63b e598 86bd
000001c0: 9023 7ebd dd73 93bd e617 a3bd b6e8 70bd
000001d0: 1f5e bcbd fa65 0bbd 5e6c 9ebb a23c 9ebd
000001e0: f061 b2bd 94c9 c2bd 208f a7bd a8fc c53b
000001f0: 0cc3 9ebb 68f7 abbd e03a 143b cca5 083c
00000200: c884 c53a f85d ce3b 7dfc 24bd c095 7ebd
00000210: 3f79 21bc c0cf 613b 3c9c e6bb 38fe a73b
00000220: cce5 eabb 004e fd3b b4a3 b83b acf9 ec3b
00000230: fa7a 17bd 5a86 a0bb e092 163a be19 19bc
00000240: 2f9f b1bd 5c4e 14bd a2e5 0dbd cdea 1cbc
00000250: 911d 1dbd 5873 2bbc 4dc4 0ebd d35a a9bd
00000260: 2acc 94bd ede6 babd 761b 82bd 05fe 4cbd
00000270: 5add a2bd 950b c8bd 1ac2 bbbd 3cb9 a5bd
00000280: 6857 bbbd 1fc8 2cbd eda7 aabd 0106 c1bd
00000290: 2c23 a2bd bd7f 88bb 7f5a 9dbc 10e8 2b3b
000002a0: a0d5 b539 4f1c b9bd 4856 a8bd 591d b2bb
000002b0: d479 293b 5922 abbd c0b4 8fbb 47bd 88bc
000002c0: 10ef a83b 2e23 98bd 60b0 8ebd ba3a abbd
000002d0: 3819 17bd 00fb 8739 16aa 2f3c a6f7 50bd
000002e0: e1b6 9bbd 64f3 2a3c fd6c 11bd 5573 3bbd
000002f0: 8eb5 92bd 8608 d4bd 4bc4 bbbd 8465 ca3b
00000300: 3e8c adbc a66b babc 003f 36bb 5760 a5bd
00000310: 76e6 49bd e576 27bd 3fb9 94bd 53f4 d5bd
00000320: f5d2 cbbd 4465 bfbd ef31 1cbc 7b39 14bd
00000330: bcef 08bc a0f8 dbbb 3063 bfbd d871 a4bd
00000340: 474c 92bb b65b c2bd 58a2 d1bd f86f a5bd
00000350: e262 51bd ab30 9ebd b28f 123c 9d7f b8bd
00000360: 5849 41bd cfc8 febc 3727 23bc d0ab a9bd
00000370: b4c8 8cbb 1e45 213c b4f7 cebb 60ad dd39
00000380: 9d88 02bc f5d8 93bd cf35 6dbd 60c3 c4bd
00000390: e96f 8ebd d711 7cbd 8949 0dbc b4fa 853b
000003a0: a045 da3b 7ccd 693b 7141 ecbb 2e27 febb
000003b0: bc7b 8dbb 28cf a43b 9d6a 90bd 7db2 68bd
000003c0: 5865 1f3b a818 33bd 153f 0abc 1535 9bbc
000003d0: 6267 a2bd 70a9 0b3c 8557 bfbd f0fa bc3b
000003e0: 7133 52bd f79c 14bd 2d75 99bd 7603 b3bd
000003f0: f8ba 323b 8e94 2fbd 5ab9 b4bd 1dda bbbd

fc1.bias f4 [16]
0.09110927 0.09926172 -0.006064597 -0.0033700578 0.08581639 -0.0064288154 -0.010606557 -0.01286553
0.00027812878 -0.008624428 -0.0013052868 0.098104194 0.102560766 -0.017228186 0.10887577 0.106881395
00000000: 7f97 ba3d bb49 cb3d 87b9 c6bb 30dc 5cbb
00000010: 81c0 af3d d0a8 d2bb 20c7 2dbc f2c9 52bc
00000020: d0d1 9139 794d 0dbc 2816 abba daea c83d
00000030: 610b d23d 2022 8dbc 42fa de3d a2e4 da3d

fc2.weight f4 [1, 16]
-0.18633044 -0.15511201 0.22995622 0.2964115 -0.16660333 0.24804926 0.29029146 0.23860349
0.09894515 0.07850188 0.256186 -0.13211533 -0.28026354 0.085507385 -0.26081374 -0.32620305
00000000: 68cd 3ebe afd5 1ebe a579 6b3e 40c3 973e
00000010: 109a 2abe a000 7e3e 15a1 943e 7954 743e
00000020: c1a3 ca3d 98c5 a03d d02a 833e 3e49 07be
00000030: b47e 8fbe 7f1e af3d 6189 85be 1604 a7be
